Loaded 10326 train images

Model Architecture Summary:
Input shape: torch.Size([1, 3, 300, 300])

MobileNetV3 Backbone:
Sequential(
  (0): Conv2dNormActivation(
    (0): Conv2d(3, 16, kernel_size=(3, 3), stride=(2, 2), padding=(1, 1), bias=False)
    (1): BatchNorm2d(16, eps=0.001, momentum=0.01, affine=True, track_running_stats=True)
    (2): Hardswish()
  )
  (1): InvertedResidual(
    (block): Sequential(
      (0): Conv2dNormActivation(
        (0): Conv2d(16, 16, kernel_size=(3, 3), stride=(1, 1), padding=(1, 1), groups=16, bias=False)
        (1): BatchNorm2d(16, eps=0.001, momentum=0.01, affine=True, track_running_stats=True)
        (2): ReLU(inplace=True)
      )
      (1): Conv2dNormActivation(
        (0): Conv2d(16, 16, kernel_size=(1, 1), stride=(1, 1), bias=False)
        (1): BatchNorm2d(16, eps=0.001, momentum=0.01, affine=True, track_running_stats=True)
      )
    )
  )
  (2): InvertedResidual(
    (block): Sequential(
      (0): Conv2dNormActivation(
        (0): Conv2d(16, 64, kernel_size=(1, 1), stride=(1, 1), bias=False)
        (1): BatchNorm2d(64, eps=0.001, momentum=0.01, affine=True, track_running_stats=True)
        (2): ReLU(inplace=True)
      )
      (1): Conv2dNormActivation(
        (0): Conv2d(64, 64, kernel_size=(3, 3), stride=(2, 2), padding=(1, 1), groups=64, bias=False)
        (1): BatchNorm2d(64, eps=0.001, momentum=0.01, affine=True, track_running_stats=True)
        (2): ReLU(inplace=True)
      )
      (2): Conv2dNormActivation(
        (0): Conv2d(64, 24, kernel_size=(1, 1), stride=(1, 1), bias=False)
        (1): BatchNorm2d(24, eps=0.001, momentum=0.01, affine=True, track_running_stats=True)
      )
    )
  )
  (3): InvertedResidual(
    (block): Sequential(
      (0): Conv2dNormActivation(
        (0): Conv2d(24, 72, kernel_size=(1, 1), stride=(1, 1), bias=False)
        (1): BatchNorm2d(72, eps=0.001, momentum=0.01, affine=True, track_running_stats=True)
        (2): ReLU(inplace=True)
      )
      (1): Conv2dNormActivation(
        (0): Conv2d(72, 72, kernel_size=(3, 3), stride=(1, 1), padding=(1, 1), groups=72, bias=False)
        (1): BatchNorm2d(72, eps=0.001, momentum=0.01, affine=True, track_running_stats=True)
        (2): ReLU(inplace=True)
      )
      (2): Conv2dNormActivation(
        (0): Conv2d(72, 24, kernel_size=(1, 1), stride=(1, 1), bias=False)
        (1): BatchNorm2d(24, eps=0.001, momentum=0.01, affine=True, track_running_stats=True)
      )
    )
  )
  (4): InvertedResidual(
    (block): Sequential(
      (0): Conv2dNormActivation(
        (0): Conv2d(24, 72, kernel_size=(1, 1), stride=(1, 1), bias=False)
        (1): BatchNorm2d(72, eps=0.001, momentum=0.01, affine=True, track_running_stats=True)
        (2): ReLU(inplace=True)
      )
      (1): Conv2dNormActivation(
        (0): Conv2d(72, 72, kernel_size=(5, 5), stride=(2, 2), padding=(2, 2), groups=72, bias=False)
        (1): BatchNorm2d(72, eps=0.001, momentum=0.01, affine=True, track_running_stats=True)
        (2): ReLU(inplace=True)
      )
      (2): SqueezeExcitation(
        (avgpool): AdaptiveAvgPool2d(output_size=1)
        (fc1): Conv2d(72, 24, kernel_size=(1, 1), stride=(1, 1))
        (fc2): Conv2d(24, 72, kernel_size=(1, 1), stride=(1, 1))
        (activation): ReLU()
        (scale_activation): Hardsigmoid()
      )
      (3): Conv2dNormActivation(
        (0): Conv2d(72, 40, kernel_size=(1, 1), stride=(1, 1), bias=False)
        (1): BatchNorm2d(40, eps=0.001, momentum=0.01, affine=True, track_running_stats=True)
      )
    )
  )
  (5): InvertedResidual(
    (block): Sequential(
      (0): Conv2dNormActivation(
        (0): Conv2d(40, 120, kernel_size=(1, 1), stride=(1, 1), bias=False)
        (1): BatchNorm2d(120, eps=0.001, momentum=0.01, affine=True, track_running_stats=True)
        (2): ReLU(inplace=True)
      )
      (1): Conv2dNormActivation(
        (0): Conv2d(120, 120, kernel_size=(5, 5), stride=(1, 1), padding=(2, 2), groups=120, bias=False)
        (1): BatchNorm2d(120, eps=0.001, momentum=0.01, affine=True, track_running_stats=True)
        (2): ReLU(inplace=True)
      )
      (2): SqueezeExcitation(
        (avgpool): AdaptiveAvgPool2d(output_size=1)
        (fc1): Conv2d(120, 32, kernel_size=(1, 1), stride=(1, 1))
        (fc2): Conv2d(32, 120, kernel_size=(1, 1), stride=(1, 1))
        (activation): ReLU()
        (scale_activation): Hardsigmoid()
      )
      (3): Conv2dNormActivation(
        (0): Conv2d(120, 40, kernel_size=(1, 1), stride=(1, 1), bias=False)
        (1): BatchNorm2d(40, eps=0.001, momentum=0.01, affine=True, track_running_stats=True)
      )
    )
  )
  (6): InvertedResidual(
    (block): Sequential(
      (0): Conv2dNormActivation(
        (0): Conv2d(40, 120, kernel_size=(1, 1), stride=(1, 1), bias=False)
        (1): BatchNorm2d(120, eps=0.001, momentum=0.01, affine=True, track_running_stats=True)
        (2): ReLU(inplace=True)
      )
      (1): Conv2dNormActivation(
        (0): Conv2d(120, 120, kernel_size=(5, 5), stride=(1, 1), padding=(2, 2), groups=120, bias=False)
        (1): BatchNorm2d(120, eps=0.001, momentum=0.01, affine=True, track_running_stats=True)
        (2): ReLU(inplace=True)
      )
      (2): SqueezeExcitation(
        (avgpool): AdaptiveAvgPool2d(output_size=1)
        (fc1): Conv2d(120, 32, kernel_size=(1, 1), stride=(1, 1))
        (fc2): Conv2d(32, 120, kernel_size=(1, 1), stride=(1, 1))
        (activation): ReLU()
        (scale_activation): Hardsigmoid()
      )
      (3): Conv2dNormActivation(
        (0): Conv2d(120, 40, kernel_size=(1, 1), stride=(1, 1), bias=False)
        (1): BatchNorm2d(40, eps=0.001, momentum=0.01, affine=True, track_running_stats=True)
      )
    )
  )
  (7): InvertedResidual(
    (block): Sequential(
      (0): Conv2dNormActivation(
        (0): Conv2d(40, 240, kernel_size=(1, 1), stride=(1, 1), bias=False)
        (1): BatchNorm2d(240, eps=0.001, momentum=0.01, affine=True, track_running_stats=True)
        (2): Hardswish()
      )
      (1): Conv2dNormActivation(
        (0): Conv2d(240, 240, kernel_size=(3, 3), stride=(2, 2), padding=(1, 1), groups=240, bias=False)
        (1): BatchNorm2d(240, eps=0.001, momentum=0.01, affine=True, track_running_stats=True)
        (2): Hardswish()
      )
      (2): Conv2dNormActivation(
        (0): Conv2d(240, 80, kernel_size=(1, 1), stride=(1, 1), bias=False)
        (1): BatchNorm2d(80, eps=0.001, momentum=0.01, affine=True, track_running_stats=True)
      )
    )
  )
  (8): InvertedResidual(
    (block): Sequential(
      (0): Conv2dNormActivation(
        (0): Conv2d(80, 200, kernel_size=(1, 1), stride=(1, 1), bias=False)
        (1): BatchNorm2d(200, eps=0.001, momentum=0.01, affine=True, track_running_stats=True)
        (2): Hardswish()
      )
      (1): Conv2dNormActivation(
        (0): Conv2d(200, 200, kernel_size=(3, 3), stride=(1, 1), padding=(1, 1), groups=200, bias=False)
        (1): BatchNorm2d(200, eps=0.001, momentum=0.01, affine=True, track_running_stats=True)
        (2): Hardswish()
      )
      (2): Conv2dNormActivation(
        (0): Conv2d(200, 80, kernel_size=(1, 1), stride=(1, 1), bias=False)
        (1): BatchNorm2d(80, eps=0.001, momentum=0.01, affine=True, track_running_stats=True)
      )
    )
  )
  (9): InvertedResidual(
    (block): Sequential(
      (0): Conv2dNormActivation(
        (0): Conv2d(80, 184, kernel_size=(1, 1), stride=(1, 1), bias=False)
        (1): BatchNorm2d(184, eps=0.001, momentum=0.01, affine=True, track_running_stats=True)
        (2): Hardswish()
      )
      (1): Conv2dNormActivation(
        (0): Conv2d(184, 184, kernel_size=(3, 3), stride=(1, 1), padding=(1, 1), groups=184, bias=False)
        (1): BatchNorm2d(184, eps=0.001, momentum=0.01, affine=True, track_running_stats=True)
        (2): Hardswish()
      )
      (2): Conv2dNormActivation(
        (0): Conv2d(184, 80, kernel_size=(1, 1), stride=(1, 1), bias=False)
        (1): BatchNorm2d(80, eps=0.001, momentum=0.01, affine=True, track_running_stats=True)
      )
    )
  )
  (10): InvertedResidual(
    (block): Sequential(
      (0): Conv2dNormActivation(
        (0): Conv2d(80, 184, kernel_size=(1, 1), stride=(1, 1), bias=False)
        (1): BatchNorm2d(184, eps=0.001, momentum=0.01, affine=True, track_running_stats=True)
        (2): Hardswish()
      )
      (1): Conv2dNormActivation(
        (0): Conv2d(184, 184, kernel_size=(3, 3), stride=(1, 1), padding=(1, 1), groups=184, bias=False)
        (1): BatchNorm2d(184, eps=0.001, momentum=0.01, affine=True, track_running_stats=True)
        (2): Hardswish()
      )
      (2): Conv2dNormActivation(
        (0): Conv2d(184, 80, kernel_size=(1, 1), stride=(1, 1), bias=False)
        (1): BatchNorm2d(80, eps=0.001, momentum=0.01, affine=True, track_running_stats=True)
      )
    )
  )
  (11): InvertedResidual(
    (block): Sequential(
      (0): Conv2dNormActivation(
        (0): Conv2d(80, 480, kernel_size=(1, 1), stride=(1, 1), bias=False)
        (1): BatchNorm2d(480, eps=0.001, momentum=0.01, affine=True, track_running_stats=True)
        (2): Hardswish()
      )
      (1): Conv2dNormActivation(
        (0): Conv2d(480, 480, kernel_size=(3, 3), stride=(1, 1), padding=(1, 1), groups=480, bias=False)
        (1): BatchNorm2d(480, eps=0.001, momentum=0.01, affine=True, track_running_stats=True)
        (2): Hardswish()
      )
      (2): SqueezeExcitation(
        (avgpool): AdaptiveAvgPool2d(output_size=1)
        (fc1): Conv2d(480, 120, kernel_size=(1, 1), stride=(1, 1))
        (fc2): Conv2d(120, 480, kernel_size=(1, 1), stride=(1, 1))
        (activation): ReLU()
        (scale_activation): Hardsigmoid()
      )
      (3): Conv2dNormActivation(
        (0): Conv2d(480, 112, kernel_size=(1, 1), stride=(1, 1), bias=False)
        (1): BatchNorm2d(112, eps=0.001, momentum=0.01, affine=True, track_running_stats=True)
      )
    )
  )
  (12): InvertedResidual(
    (block): Sequential(
      (0): Conv2dNormActivation(
        (0): Conv2d(112, 672, kernel_size=(1, 1), stride=(1, 1), bias=False)
        (1): BatchNorm2d(672, eps=0.001, momentum=0.01, affine=True, track_running_stats=True)
        (2): Hardswish()
      )
      (1): Conv2dNormActivation(
        (0): Conv2d(672, 672, kernel_size=(3, 3), stride=(1, 1), padding=(1, 1), groups=672, bias=False)
        (1): BatchNorm2d(672, eps=0.001, momentum=0.01, affine=True, track_running_stats=True)
        (2): Hardswish()
      )
      (2): SqueezeExcitation(
        (avgpool): AdaptiveAvgPool2d(output_size=1)
        (fc1): Conv2d(672, 168, kernel_size=(1, 1), stride=(1, 1))
        (fc2): Conv2d(168, 672, kernel_size=(1, 1), stride=(1, 1))
        (activation): ReLU()
        (scale_activation): Hardsigmoid()
      )
      (3): Conv2dNormActivation(
        (0): Conv2d(672, 112, kernel_size=(1, 1), stride=(1, 1), bias=False)
        (1): BatchNorm2d(112, eps=0.001, momentum=0.01, affine=True, track_running_stats=True)
      )
    )
  )
  (13): InvertedResidual(
    (block): Sequential(
      (0): Conv2dNormActivation(
        (0): Conv2d(112, 672, kernel_size=(1, 1), stride=(1, 1), bias=False)
        (1): BatchNorm2d(672, eps=0.001, momentum=0.01, affine=True, track_running_stats=True)
        (2): Hardswish()
      )
      (1): Conv2dNormActivation(
        (0): Conv2d(672, 672, kernel_size=(5, 5), stride=(2, 2), padding=(2, 2), groups=672, bias=False)
        (1): BatchNorm2d(672, eps=0.001, momentum=0.01, affine=True, track_running_stats=True)
        (2): Hardswish()
      )
      (2): SqueezeExcitation(
        (avgpool): AdaptiveAvgPool2d(output_size=1)
        (fc1): Conv2d(672, 168, kernel_size=(1, 1), stride=(1, 1))
        (fc2): Conv2d(168, 672, kernel_size=(1, 1), stride=(1, 1))
        (activation): ReLU()
        (scale_activation): Hardsigmoid()
      )
      (3): Conv2dNormActivation(
        (0): Conv2d(672, 160, kernel_size=(1, 1), stride=(1, 1), bias=False)
        (1): BatchNorm2d(160, eps=0.001, momentum=0.01, affine=True, track_running_stats=True)
      )
    )
  )
  (14): InvertedResidual(
    (block): Sequential(
      (0): Conv2dNormActivation(
        (0): Conv2d(160, 960, kernel_size=(1, 1), stride=(1, 1), bias=False)
        (1): BatchNorm2d(960, eps=0.001, momentum=0.01, affine=True, track_running_stats=True)
        (2): Hardswish()
      )
      (1): Conv2dNormActivation(
        (0): Conv2d(960, 960, kernel_size=(5, 5), stride=(1, 1), padding=(2, 2), groups=960, bias=False)
        (1): BatchNorm2d(960, eps=0.001, momentum=0.01, affine=True, track_running_stats=True)
        (2): Hardswish()
      )
      (2): SqueezeExcitation(
        (avgpool): AdaptiveAvgPool2d(output_size=1)
        (fc1): Conv2d(960, 240, kernel_size=(1, 1), stride=(1, 1))
        (fc2): Conv2d(240, 960, kernel_size=(1, 1), stride=(1, 1))
        (activation): ReLU()
        (scale_activation): Hardsigmoid()
      )
      (3): Conv2dNormActivation(
        (0): Conv2d(960, 160, kernel_size=(1, 1), stride=(1, 1), bias=False)
        (1): BatchNorm2d(160, eps=0.001, momentum=0.01, affine=True, track_running_stats=True)
      )
    )
  )
  (15): InvertedResidual(
    (block): Sequential(
      (0): Conv2dNormActivation(
        (0): Conv2d(160, 960, kernel_size=(1, 1), stride=(1, 1), bias=False)
        (1): BatchNorm2d(960, eps=0.001, momentum=0.01, affine=True, track_running_stats=True)
        (2): Hardswish()
      )
      (1): Conv2dNormActivation(
        (0): Conv2d(960, 960, kernel_size=(5, 5), stride=(1, 1), padding=(2, 2), groups=960, bias=False)
        (1): BatchNorm2d(960, eps=0.001, momentum=0.01, affine=True, track_running_stats=True)
        (2): Hardswish()
      )
      (2): SqueezeExcitation(
        (avgpool): AdaptiveAvgPool2d(output_size=1)
        (fc1): Conv2d(960, 240, kernel_size=(1, 1), stride=(1, 1))
        (fc2): Conv2d(240, 960, kernel_size=(1, 1), stride=(1, 1))
        (activation): ReLU()
        (scale_activation): Hardsigmoid()
      )
      (3): Conv2dNormActivation(
        (0): Conv2d(960, 160, kernel_size=(1, 1), stride=(1, 1), bias=False)
        (1): BatchNorm2d(160, eps=0.001, momentum=0.01, affine=True, track_running_stats=True)
      )
    )
  )
  (16): Conv2dNormActivation(
    (0): Conv2d(160, 960, kernel_size=(1, 1), stride=(1, 1), bias=False)
    (1): BatchNorm2d(960, eps=0.001, momentum=0.01, affine=True, track_running_stats=True)
    (2): Hardswish()
  )
)

Additional Layers:
Extra Layer 1:
Sequential(
  (0): Conv2d(960, 512, kernel_size=(1, 1), stride=(1, 1))
  (1): ReLU(inplace=True)
  (2): Conv2d(512, 512, kernel_size=(3, 3), stride=(2, 2), padding=(1, 1))
  (3): ReLU(inplace=True)
)
Extra Layer 2:
Sequential(
  (0): Conv2d(512, 256, kernel_size=(1, 1), stride=(1, 1))
  (1): ReLU(inplace=True)
  (2): Conv2d(256, 256, kernel_size=(3, 3), stride=(2, 2), padding=(1, 1))
  (3): ReLU(inplace=True)
)

Prediction Heads:
Classification Heads: ModuleList(
  (0): Conv2d(24, 112, kernel_size=(3, 3), stride=(1, 1), padding=(1, 1))
  (1): Conv2d(40, 168, kernel_size=(3, 3), stride=(1, 1), padding=(1, 1))
  (2): Conv2d(160, 168, kernel_size=(3, 3), stride=(1, 1), padding=(1, 1))
  (3): Conv2d(960, 168, kernel_size=(3, 3), stride=(1, 1), padding=(1, 1))
  (4): Conv2d(512, 112, kernel_size=(3, 3), stride=(1, 1), padding=(1, 1))
  (5): Conv2d(256, 112, kernel_size=(3, 3), stride=(1, 1), padding=(1, 1))
)
Bounding Box Heads: ModuleList(
  (0): Conv2d(24, 16, kernel_size=(3, 3), stride=(1, 1), padding=(1, 1))
  (1): Conv2d(40, 24, kernel_size=(3, 3), stride=(1, 1), padding=(1, 1))
  (2): Conv2d(160, 24, kernel_size=(3, 3), stride=(1, 1), padding=(1, 1))
  (3): Conv2d(960, 24, kernel_size=(3, 3), stride=(1, 1), padding=(1, 1))
  (4): Conv2d(512, 16, kernel_size=(3, 3), stride=(1, 1), padding=(1, 1))
  (5): Conv2d(256, 16, kernel_size=(3, 3), stride=(1, 1), padding=(1, 1))
)

Total Parameters: 9,463,048
Trainable Parameters: 9,463,048

Feature Map Sizes:
Input size: torch.Size([1, 3, 300, 300])
Layer 3 output: torch.Size([1, 24, 75, 75])
Layer 6 output: torch.Size([1, 40, 38, 38])
Layer 13 output: torch.Size([1, 160, 10, 10])
Final features output: torch.Size([1, 960, 10, 10])
Extra Layer 1 output: torch.Size([1, 512, 5, 5])
…
